Transformer(
  (embedding): Embedding(10148, 512, padding_idx=0)
  (dropout1): Dropout(p=0.1, inplace=False)
  (dropout2): Dropout(p=0.1, inplace=False)
  (encoder): TransformerEncoder(
    (layers): ModuleList(
      (0-5): 6 x TransformerEncoderLayer(
        (drop_out): Dropout(p=0.1, inplace=False)
        (sa_layer_norm): LayerNorm((512,), eps=1e-05, elementwise_affine=True)
        (ffn_layer_norm): LayerNorm((512,), eps=1e-05, elementwise_affine=True)
        (self_attn): MultiHeadAttention(
          (drop_out): Dropout(p=0.1, inplace=False)
          (fc): Linear(in_features=512, out_features=512, bias=True)
          (q_proj): Linear(in_features=512, out_features=512, bias=True)
          (k_proj): Linear(in_features=512, out_features=512, bias=True)
          (v_proj): Linear(in_features=512, out_features=512, bias=True)
        )
        (fc1): Linear(in_features=512, out_features=1024, bias=True)
        (fc2): Linear(in_features=1024, out_features=512, bias=True)
      )
    )
    (layer_norm): LayerNorm((512,), eps=1e-05, elementwise_affine=True)
  )
  (decoder): TransformerDecoder(
    (layers): ModuleList(
      (0-5): 6 x TransformerDecoderLayer(
        (drop_out1): Dropout(p=0.1, inplace=False)
        (drop_out2): Dropout(p=0.1, inplace=False)
        (drop_out3): Dropout(p=0.1, inplace=False)
        (sa_layer_norm): LayerNorm((512,), eps=1e-05, elementwise_affine=True)
        (en_de_layer_norm): LayerNorm((512,), eps=1e-05, elementwise_affine=True)
        (ffn_layer_norm): LayerNorm((512,), eps=1e-05, elementwise_affine=True)
        (self_attn): MultiHeadAttention(
          (drop_out): Dropout(p=0.1, inplace=False)
          (fc): Linear(in_features=512, out_features=512, bias=True)
          (q_proj): Linear(in_features=512, out_features=512, bias=True)
          (k_proj): Linear(in_features=512, out_features=512, bias=True)
          (v_proj): Linear(in_features=512, out_features=512, bias=True)
        )
        (en_de_attn): MultiHeadAttention(
          (drop_out): Dropout(p=0.1, inplace=False)
          (fc): Linear(in_features=512, out_features=512, bias=True)
          (q_proj): Linear(in_features=512, out_features=512, bias=True)
          (k_proj): Linear(in_features=512, out_features=512, bias=True)
          (v_proj): Linear(in_features=512, out_features=512, bias=True)
        )
        (fc1): Linear(in_features=512, out_features=1024, bias=True)
        (fc2): Linear(in_features=1024, out_features=512, bias=True)
      )
    )
    (layer_norm): LayerNorm((512,), eps=1e-05, elementwise_affine=True)
  )
  (fc): Linear(in_features=512, out_features=10148, bias=True)
)
Epoch: 0 | Time: 0m 17s | Training loss: 8.45595847002208 | nll loss: 8.360956004866308 | ppl: 328.77482092643163 | lr: 3.511325495917639e-05
Epoch: 0 | Time: 0m 35s | Training loss: 7.0212136053771665 | nll loss: 6.649689414595389 | ppl: 100.40514684359299 | lr: 7.00518171076106e-05
Epoch: 0 | Time: 0m 53s | Training loss: 6.678388102917963 | nll loss: 6.249394754787165 | ppl: 76.07733239664549 | lr: 0.00010499037925604482
…
